…
}, 'dropout': 0}, 'classifier': {'mlp_config': {'dim_list': [64, 1024, 1], 'activation': 'relu', 'batch_norm': True, 'dropout': 0.5}}}}, 'base_dir': PosixPath('/home/robesafe/tesis/SoPhie')}
Initializing train dataset
Initializing val dataset
abs_norm: (tensor(-22.2594, dtype=torch.float64), tensor(4733.9949, dtype=torch.float64))
abs_norm: (tensor(-17.6174, dtype=torch.float64), tensor(19.1474, dtype=torch.float64))
There are 64356 iterations per epoch
Generator model:
TrajectoryGenerator(
  (visual_feature_extractor): VisualExtractor(
    (module): VGG(
      (module): Sequential(
        (0): Conv2d(3, 64, kernel_size=(3, 3), stride=(1, 1), padding=(1, 1))
        (1): ReLU(inplace=True)
        (2): Conv2d(64, 64, kernel_size=(3, 3), stride=(1, 1), padding=(1, 1))
        (3): ReLU(inplace=True)
        (4): MaxPool2d(kernel_size=2, stride=2, padding=0, dilation=1, ceil_mode=False)
        (5): Conv2d(64, 128, kernel_size=(3, 3), stride=(1, 1), padding=(1, 1))
        (6): ReLU(inplace=True)
        (7): Conv2d(128, 128, kernel_size=(3, 3), stride=(1, 1), padding=(1, 1))
        (8): ReLU(inplace=True)
        (9): MaxPool2d(kernel_size=2, stride=2, padding=0, dilation=1, ceil_mode=False)
        (10): Conv2d(128, 256, kernel_size=(3, 3), stride=(1, 1), padding=(1, 1))
        (11): ReLU(inplace=True)
        (12): Conv2d(256, 256, kernel_size=(3, 3), stride=(1, 1), padding=(1, 1))
        (13): ReLU(inplace=True)
        (14): Conv2d(256, 256, kernel_size=(3, 3), stride=(1, 1), padding=(1, 1))
        (15): ReLU(inplace=True)
        (16): Conv2d(256, 256, kernel_size=(3, 3), stride=(1, 1), padding=(1, 1))
        (17): ReLU(inplace=True)
        (18): MaxPool2d(kernel_size=2, stride=2, padding=0, dilation=1, ceil_mode=False)
        (19): Conv2d(256, 512, kernel_size=(3, 3), stride=(1, 1), padding=(1, 1))
        (20): ReLU(inplace=True)
        (21): Conv2d(512, 512, kernel_size=(3, 3), stride=(1, 1), padding=(1, 1))
        (22): ReLU(inplace=True)
        (23): Conv2d(512, 512, kernel_size=(3, 3), stride=(1, 1), padding=(1, 1))
        (24): ReLU(inplace=True)
        (25): Conv2d(512, 512, kernel_size=(3, 3), stride=(1, 1), padding=(1, 1))
        (26): ReLU(inplace=True)
        (27): MaxPool2d(kernel_size=2, stride=2, padding=0, dilation=1, ceil_mode=False)
        (28): Conv2d(512, 512, kernel_size=(3, 3), stride=(1, 1), padding=(1, 1))
        (29): ReLU(inplace=True)
        (30): Conv2d(512, 512, kernel_size=(3, 3), stride=(1, 1), padding=(1, 1))
        (31): ReLU(inplace=True)
        (32): Conv2d(512, 512, kernel_size=(3, 3), stride=(1, 1), padding=(1, 1))
        (33): ReLU(inplace=True)
        (34): Conv2d(512, 512, kernel_size=(3, 3), stride=(1, 1), padding=(1, 1))
        (35): ReLU(inplace=True)
        (36): MaxPool2d(kernel_size=2, stride=2, padding=0, dilation=1, ceil_mode=False)
      )
    )
  )
  (encoder): Encoder(
    (encoder): LSTM(16, 32)
    (spatial_embedding): Linear(in_features=2, out_features=16, bias=True)
  )
  (lne): LayerNorm((32,), eps=1e-05, elementwise_affine=True)
  (sattn): MultiHeadAttention(
    (attention): DotProductAttention(
      (dropout): Dropout(p=0, inplace=False)
    )
    (W_q): Linear(in_features=32, out_features=32, bias=False)
    (W_k): Linear(in_features=32, out_features=32, bias=False)
    (W_v): Linear(in_features=32, out_features=32, bias=False)
    (W_o): Linear(in_features=32, out_features=32, bias=False)
  )
  (pos_encoding): PositionalEncoding(
    (dropout): Dropout(p=0, inplace=False)
  )
  (pattn): MultiHeadAttention(
    (attention): DotProductAttention(
      (dropout): Dropout(p=0, inplace=False)
    )
    (W_q): Linear(in_features=32, out_features=32, bias=False)
    (W_k): Linear(in_features=18432, out_features=32, bias=False)
    (W_v): Linear(in_features=18432, out_features=32, bias=False)
    (W_o): Linear(in_features=32, out_features=32, bias=False)
  )
  (decoder): DecoderTemporal(
    (decoder): LSTM(16, 32)
    (spatial_embedding): Linear(in_features=40, out_features=16, bias=True)
    (ln1): LayerNorm((40,), eps=1e-05, elementwise_affine=True)
    (hidden2pos): Linear(in_features=32, out_features=2, bias=True)
    (ln2): LayerNorm((32,), eps=1e-05, elementwise_affine=True)
    (output_activation): Sigmoid()
  )
  (lnc): LayerNorm((64,), eps=1e-05, elementwise_affine=True)
  (mlp_decoder_context): Sequential(
    (0): Linear(in_features=64, out_features=64, bias=True)
    (1): LeakyReLU(negative_slope=0.01)
    (2): Linear(in_features=64, out_features=24, bias=True)
    (3): LeakyReLU(negative_slope=0.01)
  )
)
Discriminator model:
TrajectoryDiscriminator(
  (encoder): Encoder(
    (encoder): LSTM(16, 64)
    (spatial_embedding): Linear(in_features=2, out_features=16, bias=True)
  )
  (real_classifier): Sequential(
    (0): Linear(in_features=64, out_features=64, bias=True)
    (1): LeakyReLU(negative_slope=0.01)
    (2): Linear(in_features=64, out_features=1, bias=True)
    (3): LeakyReLU(negative_slope=0.01)
  )
)
Train 1288
Val 247
Starting epoch 1
