…
rom': None, 'restore_from_checkpoint': None, 'clipping_threshold_d': 0, 'clipping_threshold_g': 0, 'obs_len': 8, 'best_k': 1, 'l2_loss_weight': 0, 'num_samples_check': 5000, 'pred_len': 8}, 'base_dir': PosixPath('/home/robesafe/git/SoPhie')}
[INFO: trainer.py:   60]: Initializing train dataset
[INFO: trainer.py:   70]: Initializing val dataset
[INFO: trainer.py:   87]: There are 2482.5 iterations per epoch
[INFO: trainer.py:   97]: Generator model:
[INFO: trainer.py:   98]: SoPhieGenerator(
  (visual_feature_extractor): VisualExtractor(
    (module): VGG(
      (module): Sequential(
        (0): Conv2d(3, 64, kernel_size=(3, 3), stride=(1, 1), padding=(1, 1))
        (1): ReLU(inplace=True)
        (2): Conv2d(64, 64, kernel_size=(3, 3), stride=(1, 1), padding=(1, 1))
        (3): ReLU(inplace=True)
        (4): MaxPool2d(kernel_size=2, stride=2, padding=0, dilation=1, ceil_mode=False)
        (5): Conv2d(64, 128, kernel_size=(3, 3), stride=(1, 1), padding=(1, 1))
        (6): ReLU(inplace=True)
        (7): Conv2d(128, 128, kernel_size=(3, 3), stride=(1, 1), padding=(1, 1))
        (8): ReLU(inplace=True)
        (9): MaxPool2d(kernel_size=2, stride=2, padding=0, dilation=1, ceil_mode=False)
        (10): Conv2d(128, 256, kernel_size=(3, 3), stride=(1, 1), padding=(1, 1))
        (11): ReLU(inplace=True)
        (12): Conv2d(256, 256, kernel_size=(3, 3), stride=(1, 1), padding=(1, 1))
        (13): ReLU(inplace=True)
        (14): Conv2d(256, 256, kernel_size=(3, 3), stride=(1, 1), padding=(1, 1))
        (15): ReLU(inplace=True)
        (16): Conv2d(256, 256, kernel_size=(3, 3), stride=(1, 1), padding=(1, 1))
        (17): ReLU(inplace=True)
        (18): MaxPool2d(kernel_size=2, stride=2, padding=0, dilation=1, ceil_mode=False)
        (19): Conv2d(256, 512, kernel_size=(3, 3), stride=(1, 1), padding=(1, 1))
        (20): ReLU(inplace=True)
        (21): Conv2d(512, 512, kernel_size=(3, 3), stride=(1, 1), padding=(1, 1))
        (22): ReLU(inplace=True)
        (23): Conv2d(512, 512, kernel_size=(3, 3), stride=(1, 1), padding=(1, 1))
        (24): ReLU(inplace=True)
        (25): Conv2d(512, 512, kernel_size=(3, 3), stride=(1, 1), padding=(1, 1))
        (26): ReLU(inplace=True)
        (27): MaxPool2d(kernel_size=2, stride=2, padding=0, dilation=1, ceil_mode=False)
        (28): Conv2d(512, 512, kernel_size=(3, 3), stride=(1, 1), padding=(1, 1))
        (29): ReLU(inplace=True)
        (30): Conv2d(512, 512, kernel_size=(3, 3), stride=(1, 1), padding=(1, 1))
        (31): ReLU(inplace=True)
        (32): Conv2d(512, 512, kernel_size=(3, 3), stride=(1, 1), padding=(1, 1))
        (33): ReLU(inplace=True)
        (34): Conv2d(512, 512, kernel_size=(3, 3), stride=(1, 1), padding=(1, 1))
        (35): ReLU(inplace=True)
        (36): MaxPool2d(kernel_size=2, stride=2, padding=0, dilation=1, ceil_mode=False)
      )
    )
  )
  (joint_feature_extractor): JointExtractor(
    (module): Encoder(
      (spatial_embedding): MLP(
        (module): Sequential(
          (0): Linear(in_features=2, out_features=16, bias=True)
          (1): ReLU()
        )
      )
      (encoder): LSTM(16, 32)
    )
  )
  (physical_attention): SATAttentionModule(
    (linear_decoder): Linear(in_features=128, out_features=512, bias=True)
    (linear_feature): Linear(in_features=324, out_features=2, bias=True)
    (relu): ReLU()
    (softmax): Softmax(dim=0)
  )
  (social_attention): SATAttentionModule(
    (linear_decoder): Linear(in_features=128, out_features=256, bias=True)
    (linear_feature): Linear(in_features=32, out_features=2, bias=True)
    (relu): ReLU()
    (softmax): Softmax(dim=0)
  )
  (generator_decoder): Decoder(
    (predicted_trajectories_generator): MLP(
      (module): Sequential(
        (0): Linear(in_features=64, out_features=128, bias=True)
        (1): ReLU()
        (2): Linear(in_features=128, out_features=64, bias=True)
        (3): ReLU()
        (4): Linear(in_features=64, out_features=2, bias=True)
        (5): ReLU()
      )
    )
    (decoder): LSTM(64, 128)
    (spatial_embedding): Linear(in_features=32, out_features=64, bias=True)
    (hidden2pos): Linear(in_features=128, out_features=64, bias=True)
    (agentscorrector): Linear(in_features=4096, out_features=256, bias=True)
  )
)
[INFO: trainer.py:  105]: Discriminator model:
[INFO: trainer.py:  106]: SoPhieDiscriminator(
  (encoder): Encoder(
    (spatial_embedding): MLP(
      (module): Sequential(
        (0): Linear(in_features=2, out_features=16, bias=True)
        (1): ReLU()
      )
    )
    (encoder): LSTM(16, 64)
  )
  (classifier): Classifier(
    (spatial_embedding): MLP(
      (module): Sequential(
        (0): Linear(in_features=64, out_features=1024, bias=True)
        (1): ReLU()
        (2): Linear(in_features=1024, out_features=1, bias=True)
        (3): ReLU()
      )
    )
    (softmax): Softmax(dim=1)
  )
)
[INFO: trainer.py:  143]: Starting epoch 1
[INFO: trainer.py:  184]: t = 1 / 620625
[INFO: trainer.py:  186]:   [D] D_data_loss: 1.629
[INFO: trainer.py:  186]:   [D] D_total_loss: 1.629
[INFO: trainer.py:  191]:   [G] G_discriminator_loss: 0.518
[INFO: trainer.py:  191]:   [G] G_total_loss: 0.518
…
